…
"user_tz":-540,"elapsed":8,"user":{"displayName":"‍류은서[학생](공과대학 산업경영공학과)","photoUrl":"https://lh3.googleusercontent.com/a/default-user=s64","userId":"15757909096936889652"}},"outputId":"2550d9fa-6aac-47b8-de8e-1e7def13dfb7"},"source":["model.summary()"],"execution_count":19,"outputs":[{"output_type":"stream","name":"stdout","text":["Model: \"sequential\"\n","_________________________________________________________________\n"," Layer (type)                Output Shape              Param #   \n","=================================================================\n"," conv2d (Conv2D)             (None, 64, 64, 32)        896       \n","                                                                 \n"," max_pooling2d (MaxPooling2D  (None, 32, 32, 32)       0         \n"," )                                                               \n","                                                                 \n"," dropout (Dropout)           (None, 32, 32, 32)        0         \n","                                                                 \n"," conv2d_1 (Conv2D)           (None, 32, 32, 64)        18496     \n","                                                                 \n"," max_pooling2d_1 (MaxPooling  (None, 16, 16, 64)       0         \n"," 2D)                                                             \n","                                                                 \n"," dropout_1 (Dropout)         (None, 16, 16, 64)        0         \n","                                                                 \n"," flatten (Flatten)           (None, 16384)             0         \n","                                                                 \n"," dense (Dense)               (None, 64)                1048640   \n","                                                                 \n"," dropout_2 (Dropout)         (None, 64)                0         \n","                                                                 \n"," dense_1 (Dense)             (None, 10)                650       \n","                                                                 \n","=================================================================\n","Total params: 1,068,682\n","Trainable params: 1,068,682\n","Non-trainable params: 0\n","_________________________________________________________________\n"]}]},{"cell_type":"code","metadata":{"id":"gW9rvJ3ZlI26","executionInfo":{"status":"ok","tim
…
